ppo_bipedalwalker_group_2.pth (torch, 52513 bytes, 12 tensors)

log_std f4 [4]
-0.59619904 -1.3745276 -0.80499834 -0.2637406
00000000: 80a0 18bf 85f0 afbf 5f14 4ebf 0209 87be

network.0.weight f4 [64, 24]
0.6532399 4.296658 -0.7488375 1.2612177 0.1083348 0.39286458 -0.37794986 0.060196497
0.26078677 -0.30334985 0.0059173866 -0.061024327 0.14067543 -0.015447078 -0.110698245 -0.15418981
-0.08348243 0.041380223 -0.10392507 0.14601614 -0.15115914 -0.03814969 0.086945035 -0.025424138
1.8586739 0.5508976 -0.25779983 -0.95654887 0.16623072 -0.12501307 -0.43537223 0.3341421
-0.121776 -0.41860715 -0.056591768 -0.60223377 0.08419259 -0.07567459 2.5411773e-05 0.05322546
0.05783 0.1426508 0.08978091 0.25306448 0.25893345 -0.0017153933 0.18651311 0.0790182
-0.79665 0.051671363 0.019209709 -1.6367313 0.0135174235 -0.37024674 0.010575126 0.5096891
0.1534311 -0.037365247 0.27949843 -0.28794694 0.10049762 0.28879765 -0.08804209 0.099301994
-0.19780828 -0.072445385 -0.14611718 -0.25710982 -0.10315914 -0.018577656 0.10457608 -0.11366904
0.6279366 1.2599645 -0.0032848287 -0.47895104 -0.5023066 -0.59083515 -0.21203233 -0.08341571
0.21648252 0.16645917 -0.21237719 -0.13491572 0.17710891 -0.37697855 0.055900656 0.41723767
0.04981361 0.09393931 0.41186586 0.36904997 0.13066398 -0.028015904 0.019947091 0.006642628
0.91799486 2.3230855 -0.049096253 -1.4147394 -0.7575378 0.1556781 -0.87431544 0.13493311
0.18067157 0.1865478 0.32984808 0.4636691 0.04199648 0.015191656 0.065424904 0.051553033
0.017889453 -0.019322695 0.07278703 -0.13960667 -0.29362682 -0.094198145 -0.050786845 0.11053649
-0.95648175 -0.3282206 -0.0610385 0.42113808 0.08294016 0.29979438 0.49976355 -0.055440553
0.082778156 -0.65830916 -0.17335993 0.4373023 0.38318324 0.27141237 -0.2730955 0.0667694
-0.11093685 -0.2687653 -0.08238128 0.12397651 -0.12400602 0.2136117 -0.14058527 -0.05632839
-0.22757125 -0.004475116 -0.1174246 1.5764077 -1.0496564 -0.3625659 1.7154295 0.7893565
-0.067555 -0.13409449 0.008317409 0.2536221 -0.060083974 0.49603012 0.013317628 -0.14490576
-0.2635721 0.014285872 -0.16073488 -0.027506152 -0.20272376 -0.16825992 0.0005678439 -0.2133057
-0.8012765 -0.6908005 0.91246605 0.5769791 -0.9887704 0.19129387 -0.18253341 0.06220405
-0.13072789 0.36450487 -0.39934725 0.17533907 -0.050945874 0.15160975 -0.17685984 -0.043215036
-0.058314677 -0.06406151 -0.11856452 -0.11141563 0.015958322 -0.26046574 0.10734244 0.12313741
-0.22342546 -2.213577 -0.27722922 0.65091 0.14901088 0.105400585 0.023887634 -0.3485655
-0.020176245 -0.00704728 0.13040581 -0.82399005 0.18935183 0.6891535 0.094379224 -0.16130368
-0.10509051 -0.11856668 -0.02760948 -0.18825793 -0.086879306 0.14500819 -0.095770046 -0.04098433
0.25658658 2.3276577 -0.31679 2.1330626 0.6439881 -0.15371186 -0.14276408 -0.13675533
-0.5875375 -0.5904042 0.10368858 0.026293924 0.05782074 0.21108893 0.14323254 -0.23243888
-0.10905223 -0.14009088 0.005008699 0.003313707 -0.021891348 0.37097397 0.29441363 0.10465674
-1.11553 0.61302036 0.5839397 -0.44531506 -0.20170085 0.2608757 -0.3575442 0.49485096
-0.3924937 -0.5396046 -0.26645175 -0.4887187 -0.24606925 -0.12141597 0.05742633 0.263435
00000000: bb3a 273f 397e 8940 d0b3 3fbf 956f a13f
00000010: a3de dd3d 8c25 c93e a582 c1be 9a90 763d
00000020: d885 853e ac50 9bbe a3e6 c13b a5f4 79bd
00000030: 380d 103e be15 7dbc c3b5 e2bd efe3 1dbe
00000040: d6f8 aabd 4f7e 293d abd6 d4bd 4185 153e
00000050: 76c9 1abe d942 1cbd 3d10 b23d 4846 d0bc
00000060: 07e9 ed3f a007 0d3f 57fe 83be 63e0 74bf
00000070: 6338 2a3e 6d03 00be 1ce9 debe ac14 ab3e
00000080: b265 f9bd ad53 d6be c5cc 67bd fe2b 1abf
00000090: 2a6d ac3d 48fb 9abd 5e2b d537 f102 5a3d
000000a0: 26df 6c3d 0d13 123e 0edf b73d ab91 813e
000000b0: ed92 843e 0cd7 e0ba 4bfd 3e3e 4bd4 a13d
000000c0: 41f1 4bbf 5aa5 533d ae5d 9d3c 6980 d1bf
000000d0: 2f78 5d3c fb90 bdbe 4b43 2d3c fc7a 023f
000000e0: 0b1d 1d3e 4d0c 19bd 6b1a 8f3e c86d 93be
000000f0: b2d1 cd3d 49dd 933e 694f b4bd d85e cb3d
00000100: 418e 4abe 3f5e 94bd be9f 15be e6a3 83be
00000110: 1945 d3bd 2b30 98bc fc2b d63d 50cb e8bd
00000120: 74c0 203f 8446 a13f 4846 57bb 1239 f5be
00000130: 2a97 00bf f940 17bf 011f 59be dbd5 aabd
00000140: 98ad 5d3e 4674 2a3e 6879 59be 5927 0abe
00000150: 0a5c 353e 5503 c1be 16f8 643d 2da0 d53e
00000160: 5b09 4c3d 4163 c03d 15e0 d23e 1ef4 bc3e
00000170: c7cc 053e 9c81 e5bc 1568 a33c 67aa d93b
00000180: b601 6b3f 6fad 1440 2719 49bd 2e16 b5bf
00000190: ffed 41bf 146a 1f3e 23d3 5fbf e82b 0a3e
000001a0: f801 393e 6306 3f3e d9e1 a83e 0966 ed3e
000001b0: 8004 2c3d 6ce6 783c 7efd 853d 4629 533d
000001c0: e78c 923c a14a 9ebc 5e11 953d 0df5 0ebe
000001d0: 4156 96be f5ea c0bd de05 50bd f560 e23d
000001e0: fddb 74bf 880c a8be 8203 7abd 699f d73e
000001f0: 88dc a93d a67e 993e 02e1 ff3e a215 63bd
00000200: 9887 a93d f386 28bf 4485 31be 16e6 df3e
00000210: 9830 c43e 90f6 8a3e 2cd3 8bbe 65be 883d
00000220: dc32 e3bd 9b9b 89be 84b7 a8bd 65e7 fd3d
00000230: def6 fdbd 07bd 5a3e 96f5 0fbe 99b8 66bd
00000240: 7008 69be fea3 92bb 4f7c f0bd bac7 c93f
00000250: 245b 86bf 3da2 b9be 3293 db3f 4513 4a3f
00000260: 475a 8abd 1150 09be be45 083c c2da 813e
00000270: 9d1a 76bd a9f7 fd3e 2e32 5a3c 2d62 14be
00000280: ecf2 86be 4a0f 6a3c af97 24be 9554 e1bc
00000290: d196 4fbe 544c 2cbe 5cdb 143a cf6c 5abe
000002a0: 7520 4dbf 4dd8 30bf 6097 693f e7b4 133f
000002b0: 0f20 7dbf 8ae2 433e 0aea 3abe adc9 7e3d
000002c0: 88dd 05be 62a0 ba3e 3e77 ccbe 168c 333e
000002d0: 9fac 50bd 963f 1b3e bf1a 35be 4002 31bd
000002e0: 5fdb 6ebd ae32 83bd f4d1 f2bd e12d e4bd
000002f0: 07bb 823c c45b 85be 5ad6 db3d 772f fc3d
00000300: a5c9 64be 3fab 0dc0 fdf0 8dbe 0aa2 263f
00000310: 4f96 183e 43dc d73d 00b0 c33c 2d77 b2be
00000320: a748 a5bc dfec e6bb 1a89 053e 03f1 52bf
00000330: 72e5 413e 5d6c 303f e549 c13d cb2c 25be
00000340: b139 d7bd 16d3 f2bd 472d e2bc b0c6 40be
00000350: c7ed b1bd 077d 143e 1623 c4bd 2fdf 27bd
00000360: 515f 833e 58f8 1440 4d32 a2be 1984 0840
00000370: 67dc 243f a466 1dbe bf30 12be 9709 0cbe
00000380: dc68 16bf bb24 17bf ae5a d43d 5b66 d73c
00000390: 71d5 6c3d b227 583e 8dab 123e 7504 6ebe
000003a0: c756 dfbd fc73 0fbe 0320 a43b c72a 593b
000003b0: 7c55 b3bc 4df0 bd3e 62bd 963e 4656 d63d
000003c0: b0c9 8ebf e7ee 1c3f 127d 153f 5600 e4be
000003d0: ab8a 4ebe 8091 853e 0910 b7be 1b5d fd3e
000003e0: eff4 c8be 8723 0abf 5d6c 88be 5639 fabe
000003f0: 94f9 7bbe f0a8 f8bd df37 6b3d f4e0 863e

network.0.bias f4 [64]
0.15978077 0.022376087 -0.2139461 0.19016731 0.08640394 -0.02211568 -0.21076144 0.11335864
0.16867715 0.12040435 0.01147625 0.058574203 -0.10102976 0.22414431 0.28017622 -0.12944907
-0.009256976 -0.090887055 0.16763565 -0.004124745 -0.033253435 0.10274798 0.04370492 -0.26574036
0.042545848 -0.14847954 -0.003562827 0.13234307 0.060455643 0.35348377 -0.14312214 -0.047373492
-0.24146545 -0.15306619 0.27525815 0.09623695 -0.28310055 0.10992288 -0.14517426 0.02946956
0.025429664 -0.14378293 0.2521351 -0.31069073 0.11785599 0.15719514 -0.14230634 -0.29274896
0.07255511 0.088535145 0.040400647 0.09072786 -0.13678484 -0.22557901 0.0947459 -0.15036051
-0.017521985 0.14333192 -0.07188743 -0.16626108 -0.050564297 -0.0029288826 0.27839118 -0.093596585
00000000: 929d 233e 0e4e b73c b014 5bbe 38bb 423e
00000010: 8df4 b03d f12b b5bc d9d1 57be 9328 e83d
00000020: b4b9 2c3e 8e96 f63d e206 3c3c 81eb 6f3d
00000030: b1e8 cebd 1686 653e 4273 8f3e 4c8e 04be
00000040: 92aa 17bc fe22 babd aea8 2b3e de28 87bb
00000050: c134 08bd 886d d23d ee03 333d 1f0f 88be
00000060: 8e44 2e3d 050b 18be 517e 69bb f184 073e
00000070: 56a0 773d d3fb b43e 9c8e 12be b50a 42bd
00000080: b842 77be 62bd 1cbe a3ee 8c3e e117 c53d
00000090: 8ef2 90be 3f1f e13d 90a8 14be 266a f13c
000000a0: df51 d03c d53b 13be da17 813e db12 9fbe
000000b0: 7b5e f13d c3f7 203e c1b8 11be 31e3 95be
000000c0: c697 943d ea51 b53d 267b 253d 87cf b93d
000000d0: 5311 0cbe 2ffe 66be 230a c23d 1bf8 19be
000000e0: 448a 8fbc 9ac5 123e b839 93bd 5840 2abe
000000f0: 821c 4fbd 7ff2 3fbb 4a89 8e3e 91af bfbd

network.2.weight f4 [64, 64]
0.26695034 0.0982151 0.51915765 -0.3989046 -1.0068932 -0.47684255 -0.78097045 -0.48319405
0.6134562 0.28005975 -0.0331671 0.38136497 0.24677575 0.22621284 0.46735907 -0.025984233
-0.62692654 -0.38391382 0.4459091 0.10669572 0.4314461 0.22660284 -0.24658808 0.19155413
0.3965277 -0.028502522 -0.1740425 -0.27110365 -0.39356557 -1.2053245 -0.10280605 0.14830992
1.3258921 0.16219652 -0.08302905 -0.01494195 0.31686962 0.18075766 0.15509076 0.2481812
-0.22401312 -0.3521856 -0.11049273 -0.18750988 -0.02868266 -0.26543874 -0.33146787 -0.32925367
-0.64418596 0.041157495 0.88709176 -0.9343873 -0.5335842 0.32129946 0.066402234 0.0324841
-0.45594984 0.25362068 -0.089391425 -0.0759661 -0.47780636 0.37493265 -0.7154491 -0.14785856
-0.0854741 -0.08430576 0.47800407 -0.70743626 -0.038917076 0.702958 0.7030071 -0.10464803
0.10736059 0.4376803 -0.2550871 -0.04895262 0.5527371 0.03774486 0.4321695 0.2436747
0.5121226 -0.61513263 0.4878955 0.33518562 0.43968257 0.41695064 0.07134024 -0.72547054
0.11573097 -0.09104096 0.1307398 0.5542106 0.21107332 -0.09959336 -0.015691081 -0.1881646
0.02670192 -0.05734597 -0.20410666 0.25752687 -0.10841789 0.5365505 -0.4918801 -0.34026095
0.46067852 -0.11640937 0.015172858 -0.13511674 -0.25993904 -0.07551315 -1.3479108 -0.22312668
-0.104481496 -0.568853 0.35344243 -0.9929294 -0.5133901 0.49469405 0.43755847 0.05107344
0.099767804 0.17792492 0.36819538 -0.101160906 0.36292455 0.08559429 0.36190474 0.6794922
0.8972799 0.41775787 0.38853255 0.036780395 0.38693452 -0.16036017 -0.8648537 -0.4138733
0.046124168 0.092427984 -0.27510133 0.32503697 1.0445766 0.28361773 0.42575568 0.22460307
-0.2127147 0.6214284 -0.25838923 -0.15922908 0.026475882 -0.3388058 -0.19302316 0.17427945
-0.088416025 -0.14866346 -0.29850867 -0.040584944 0.29382625 -0.22599803 0.68122065 0.7258486
-0.56188667 -0.72234976 0.38479742 -0.083124526 -0.23136953 0.15664355 0.045765385 -0.12792827
-0.5358945 0.3248682 0.12899141 0.026758404 -0.013639694 0.34954086 0.018151958 0.43576738
0.22402988 0.5501937 0.0021791027 0.9753615 -0.2327973 -0.43805268 0.34675375 -0.5429459
0.032434005 0.07703008 -0.17206703 0.060127936 0.28118524 0.59375864 0.0012876887 -0.3815769
-0.2064958 -0.033726223 0.04483175 -0.012420261 0.28775042 -0.7317079 -0.53401935 -0.08122459
-0.7273324 -0.36188874 -0.097418346 0.28542426 -0.6947905 -0.5612354 -1.5817597 0.11044817
-0.18309288 1.1459 -0.92335516 -0.40643954 -0.31978044 -0.4057382 -0.13015097 0.2814644
0.24417253 0.20972615 0.0844615 -1.0024463 -0.96268725 0.03064746 0.5617775 -0.16947298
-0.16190438 -0.29564127 -1.3607047 -0.1973462 0.37330824 -0.2557947 -0.20773505 -0.13084911
-0.2637699 0.29447743 -0.61095905 0.37638363 0.23970768 0.11211302 -0.026185352 0.8079828
-0.0009668694 0.08573985 0.036355432 0.58914125 -0.16171774 -0.14458306 0.28293848 -0.09554136
-0.11370982 -0.10444903 -0.026029313 0.19661087 -0.16970444 -0.8771174 -0.21667561 -0.8416787
00000000: b7ad 883e 0025 c93d 84e7 043f 393d ccbe
00000010: e0e1 80bf b524 f4be aeed 47bf 3665 f7be
00000020: 770b 1d3f fe63 8f3e 3ada 07bd 4542 c33e
00000030: c8b2 7c3e 57a4 673e b049 ef3e e3dc d4bc
00000040: 427e 20bf 5a90 c4be 334e e43e 4983 da3d
00000050: 81e6 dc3e 930a 683e 9681 7cbe c426 443e
00000060: ae05 cb3e 1f7e e9bc 3238 32be 19ce 8abe
00000070: 6d81 c9be 1348 9abf fa8b d2bd 8ede 173e
00000080: d5b6 a93f d816 263e 220b aabd 15cf 74bc
00000090: bc3c a23e 8918 393e 1dd0 1e3e 3623 7e3e
000000a0: b263 65be ac51 b4be 034a e2bd 9702 40be
000000b0: e6f7 eabc 96e7 87be 28b6 a9be f093 a8be
000000c0: 5fe9 24bf c394 283d 7218 633f 0234 6fbf
000000d0: f998 08bf 5d81 a43e e5fd 873d 0c0e 053d
000000e0: 4272 e9be 92da 813e da12 b7bd 1d94 9bbd
000000f0: 09a3 f4be 2cf7 bf3e ac27 37bf 3c68 17be
00000100: 0c0d afbd 80a8 acbd f3bc f43e 8b1a 35bf
00000110: 8367 1fbd 0ef5 333f 46f8 333f b551 d6bd
00000120: dedf db3d a217 e03e c79a 82be 8b82 48bd
00000130: 2e80 0d3f 5b9a 1a3d 5245 dd3e dc85 793e
00000140: 771a 033f 5579 1dbf 70cd f93e 739d ab3e
00000150: 131e e13e 8e7a d53e d51a 923d 70b8 39bf
00000160: 5c04 ed3d af73 babd a7e0 053e bfe0 0d3f
00000170: 9b23 583e 9bf7 cbbd 958a 80bc 39ae 40be
00000180: fcbd da3c 9ce3 6abd 5601 51be 90da 833e
00000190: 330a debd 605b 093f b5d7 fbbe af36 aebe
000001a0: 0ede eb3e 0968 eebd 9497 783c 0b5c 0abe
000001b0: bb16 85be a3a6 9abd 5788 acbf 527b 64be
000001c0: 65fa d5bd 5aa0 11bf 68f6 b43e 9f30 7ebf
000001d0: 896d 03bf 8a48 fd3e aa07 e03e 6232 513d
000001e0: 1053 cc3d f331 363e 1b84 bc3e 732d cfbd
000001f0: 3fd1 b93e 0f4c af3d 944b b93e 33f3 2d3f
00000200: 23b4 653f 5ce4 d53e bded c63e 0aa7 163d
00000210: 481c c63e 7535 24be 0d67 5dbf 34e7 d3be
00000220: b2ec 3c3d e24a bd3d 15da 8cbe 3f6b a63e
00000230: b0b4 853f 5836 913e a6fc d93e 59fe 653e
00000240: e2d1 59be ee15 1f3f 984b 84be f30c 23be
00000250: f3e3 d83c f477 adbe dda7 45be 5076 323e
00000260: 7613 b5bd 3c3b 18be 21d6 98be 663c 26bd
00000270: 6570 963e 076c 67be 7a64 2e3f 37d1 393f
00000280: ced7 0fbf eaeb 38bf 2b04 c53e 313d aabd
00000290: 22ec 6cbe 2b67 203e 7c74 3b3d a1ff 02be
000002a0: 6230 09bf 2055 a63e 5316 043e 7134 db3c
000002b0: 0679 5fbc 05f7 b23e 6ab3 943c e71c df3e
000002c0: 1768 653e 7fd9 0c3f 47cf 0e3b 4bb1 793f
000002d0: 6a62 6ebe 7148 e0be b589 b13e 81fe 0abf
000002e0: 85d9 043d f2c1 9d3d 5732 30be b648 763d
000002f0: 83f7 8f3e 9100 183f aac7 a83a 0c5e c3be
00000300: a373 53be 8224 0abd 7fa1 373d 5a7e 4bbc
00000310: 0654 933e 3551 3bbf 7eb5 08bf 1459 a6bd
00000320: 7532 3abf 7b49 b9be 4583 c7bd 2123 923e
00000330: cadd 31bf 20ad 0fbf 1a77 cabf a632 e23d
00000340: b37c 3bbe daac 923f 0161 6cbf d818 d0be
00000350: 43ba a3be ebbc cfbe 4c46 05be 1a1c 903e
00000360: 5d08 7a3e 74c2 563e 27fa ac3d 2950 80bf
00000370: ac72 76bf 6210 fb3c a6d0 0f3f 538a 2dbe
00000380: 43ca 25be 4b5e 97be 922b aebf 1f15 4abe
00000390: 4222 bf3e 86f7 82be 7fb8 54be 4ffd 05be
000003a0: d90c 87be bfc5 963e d067 1cbf 5bb5 c03e
000003b0: ee75 753e 839b e53d aa82 d6bc f6d7 4e3f
000003c0: 8275 7dba 6098 af3d 6fe9 143d f6d1 163f
000003d0: 5699 25be 950d 14be 50dd 903e 30ab c3bd
000003e0: b2e0 e8bd 5fe9 d5bd 6d3b d5bc 5c54 493e
000003f0: 00c7 2dbe c48a 60bf 36e0 5dbe 4178 57bf

network.2.bias f4 [64]
-0.168884 0.034161724 -0.004181958 -0.34000576 0.049897686 -0.11259373 -0.13267043 -0.057910655
-0.034494776 -0.017317133 -0.05165802 0.1568936 -0.0568311 -0.22687113 0.17570855 -0.19314604
-0.051705092 -0.039174486 0.13632037 0.24700655 -0.15098968 0.23231961 0.19737679 0.034523405
-0.053054843 -0.03199137 -0.016998963 -0.13062565 0.24039122 0.025211833 -0.0331619 0.16444516
-0.2143151 0.09017586 0.004287522 0.16262123 0.22156379 0.1688344 -0.07684477 -0.108889505
-0.22918645 -0.18237275 0.040547628 0.026055733 -0.13318467 -0.055494275 0.16248715 -0.0063108485
0.35833156 -0.06921585 0.15661396 -0.17174214 0.21536765 -0.088757254 -0.027604239 -0.0666862
0.07683198 0.23131765 -0.060132295 -0.101908565 -0.2912671 0.22448672 -0.21673235 0.055618126
00000000: edef 2cbe 2aed 0b3d ce08 89bb 3c15 aebe
00000010: 8461 4c3d 8b97 e6bd c2da 07be b933 6dbd
00000020: 654a 0dbd a9dc 8dbc 5c97 53bd b7a8 203e
00000030: bac7 68bd e850 68be f1ec 333e 13c8 45be
00000040: b8c8 53bd 6d75 20bd 9197 0b3e 49ef 7c3e
00000050: 0a9d 1abe 31e5 6d3e 241d 4a3e 6a68 0d3d
00000060: 0950 59bd 6209 03bd 6941 8bbc bbc2 05be
00000070: 1e29 763e 0c89 ce3c c6d4 07bd 5064 283e
00000080: 6b75 5bbe 1fae b83d 577e 8c3b 2e86 263e
00000090: 9ee1 623e ede2 2c3e ca60 9dbd 7601 dfbd
000000a0: daaf 6abe ecbf 3abe 4515 263d d572 d53c
000000b0: 9061 08be f74d 63bd 0863 263e 3ccb cebb
000000c0: 3c77 b73e 0ac1 8dbd 695f 203e 2cdd 2fbe
000000d0: 5689 5c3e 5dc6 b5bd 4922 e2bc c692 88bd
000000e0: 165a 9d3d 89de 6c3e 484d 76bd 70b5 d0bd
000000f0: f620 95be d9df 653e 16ef 5dbe d5cf 633d

network.4.weight f4 [4, 64]
-0.7384778 -0.5509295 0.17042099 -0.17786007 0.8613546 1.1555474 0.35355216 -0.7500523
1.1214269 -0.7347162 0.11860653 -0.010214693 0.78696716 -0.91135067 -0.55242705 1.1006523
-0.06309056 0.6412943 0.070642546 -0.1837554 0.015459094 0.55750835 -0.11672119 1.3260261
0.6922909 0.09861818 1.0103338 -0.022609122 -0.7569202 1.9848975 -1.1469041 -0.8332673
0.54447216 -0.6931803 -0.27775934 -0.052088942 -0.72650063 0.2871931 1.5192784 -0.16009648
1.4289656 -0.22932461 -0.19641723 -1.0387383 -0.092218794 -0.73694396 -0.2846421 0.15841709
-0.105430275 -0.075915396 -0.2240176 -0.9563472 -0.31440222 0.27003503 0.31287712 0.8735355
-0.84593165 -0.025590632 0.9932366 0.96634555 0.12546292 -0.0913241 0.53822774 0.89484257
-0.93893987 -0.32875705 1.3207281 -0.63617474 -0.07780973 -0.016394285 -0.005507496 -0.5990417
0.10383764 1.2156618 -0.050328393 -0.5437351 -0.31164652 -1.1546518 0.15722407 -0.4722212
0.1990445 0.018842893 1.9408596 0.9014674 -0.50421786 0.37096682 0.7132769 -1.5678736
-0.19301304 0.46158844 -0.18041441 -0.3100283 0.12859905 -0.81272566 0.52586466 -0.48544946
-0.19014621 0.21145387 -1.0817965 0.050698463 0.2504041 0.36997688 0.013038298 -0.047910612
-1.5428367 -0.46555388 -0.37246543 -0.93643045 -0.7630915 -0.36661443 0.2947696 2.0671425
0.593317 -0.51714516 1.0329944 -0.16711605 1.09562 -0.33526778 -0.054738678 -0.5700014
0.68210137 0.41642702 0.9047916 -0.43649268 -1.0072438 1.0001329 -0.5820655 0.2237107
0.54619825 0.7086896 -0.061519753 -0.23245677 -0.95353216 -0.17628407 1.0968653 0.14655854
-0.07282082 -0.0020367473 0.789219 0.4140243 0.022955481 0.24397607 -0.7941879 -0.7740143
-0.038430847 -0.61529845 0.8414074 0.7559907 0.6638228 -0.66054034 0.56806105 0.63477796
-0.53172976 0.044289913 -0.94311947 -0.12485577 0.07069007 -0.26964602 -0.3256599 1.3819488
0.011913084 0.35124385 0.6557382 -0.73956007 -0.3664244 0.66049844 -0.17622454 -0.13450798
0.24490166 -0.88960487 0.16102868 1.2487782 0.17348261 0.30335677 0.04239732 1.0819471
0.9121475 1.4060284 0.2514749 0.15106791 1.1565113 -0.41815814 1.6608602 -0.1681198
0.23456463 1.7425393 -0.10301904 -0.56257033 1.0105426 0.36454123 -0.34495354 -0.85143936
-1.4528365 -0.86538506 0.62799925 1.1518942 0.6596949 0.16737117 -0.017161919 0.32077733
0.1300313 0.37993494 0.64385545 -0.5495611 -0.5654704 -0.6474322 0.43898913 -0.09202483
1.8278456 0.47306633 0.6238818 -0.16863166 0.2519386 -0.18502611 -0.0476989 0.2477624
-0.70561457 0.003398113 0.25748974 -1.517632 -1.1546625 -0.26897338 -0.83897316 -0.8659723
1.2953923 -0.3277341 -1.421198 -1.1951815 0.21618131 -0.5947604 0.64058584 0.7510711
-1.1438811 1.5532738 -1.1059908 -0.93596995 0.74309087 0.22111262 -0.13187477 0.22315583
-0.3426945 0.6083983 -1.0996729 0.7131771 0.0104648005 -0.13057326 0.23872955 0.54786104
0.20826727 -0.41432196 -1.2807637 -0.16516635 -0.31088564 0.024641994 -0.32360476 0.6383113
00000000: e20c 3dbf b709 0dbf d782 2e3e f320 36be
00000010: bc81 5c3f fae8 933f ca04 b53e 6d03 40bf
00000020: eb8a 8f3f 5c16 3cbf fbe7 f23d 875b 27bc
00000030: ae76 493f 474e 69bf dc6b 0dbf 2de2 8c3f
00000040: a035 81bd dd2b 243f 0aad 903d 602a 3cbe
00000050: 2448 7d3c deb8 0e3f 850b efbd 39bb a93f
00000060: fa39 313f 54f8 c93d 9e52 813f c436 b9bc
00000070: 86c5 41bf 1f11 fe3f c1cd 92bf 0151 55bf
00000080: 8762 0b3f 4474 31bf 7936 8ebe 375b 55bd
00000090: f2fb 39bf f90a 933e b777 c23f 55f0 23be
000000a0: 58e8 b63f 12d4 6abe 9921 49be 60f5 84bf
000000b0: 35dd bcbd 5ca8 3cbf 9cbc 91be 1738 223e
000000c0: d4eb d7bd 8879 9bbd df64 65be 2cd3 74bf
000000d0: 54f9 a0be 0842 8a3e 6e31 a03e 06a0 5f3f
000000e0: fa8e 58bf 72a3 d1bc c144 7e3f 6c62 773f
000000f0: 5a79 003e 2108 bbbd 4bc9 093f 6714 653f
00000100: 5d5e 70bf d852 a8be 9e0d a93f 59dc 22bf
00000110: b55a 9fbd 4f4d 86bc 3a78 b4bb cc5a 19bf
00000120: d4a8 d43d ce9a 9b3f 2525 4ebd 3932 0bbf
00000130: 2290 9fbe a1cb 93bf 59ff 203e fac6 f1be
00000140: 52d2 4b3e 695c 9a3c 166e f83f 91c6 663f
00000150: 6c14 01bf 5def bd3e 5199 363f 15b0 c8bf
00000160: 36a5 45be 5255 ec3e 8ebe 38be 08bc 9ebe
00000170: 78af 033e ca0e 50bf 119f 063f d58c f8be
00000180: b0b5 42be 5d87 583e 4f78 8abf 31a9 4f3d
00000190: f734 803e 9c6d bd3e 969e 553c eb3d 44bd
000001a0: ac7b c5bf 145d eebe cab3 bebe e8b9 6fbf
000001b0: f759 43bf e3b4 bbbe 0aec 963e 104c 0440
000001c0: 9fe3 173f a063 04bf 2939 843f 7820 2bbe
000001d0: 473d 8c3f 38a8 abbe aa35 60bd 9deb 11bf
000001e0: 329e 2e3f ec35 d53e 6ca0 673f f87b dfbe
000001f0: 5ded 80bf 5b04 803f 3f02 15bf 6b14 653e
00000200: a6d3 0b3f ae6c 353f 23fc 7bbd 2609 6ebe
00000210: af1a 74bf d083 34be 1566 8c3f 7113 163e
00000220: 1523 95bd f37a 05bb 420a 4a3f fefa d33e
00000230: 220d bc3c ddd4 793e e64f 4bbf cd25 46bf
00000240: aa69 1dbd 3384 1dbf 7a66 573f 9b88 413f
00000250: 4bf0 293f 2c19 29bf 736c 113f cf80 223f
00000260: 711f 08bf 5769 353d 4770 71bf 62b4 ffbd
00000270: f5c5 903d 0b0f 8abe e5bc a6be b3e3 b03f
00000280: 192f 433c 3cd6 b33e 75de 273f cf53 3dbf
00000290: fb9b bbbe 6d16 293f 3574 34be 76bc 09be
000002a0: 80c7 7a3e 25bd 63bf b4e4 243e f7d7 9f3f
000002b0: 6da5 313e 9451 9b3e d0a8 2d3d 3e7d 8a3f
000002c0: 8082 693f bdf8 b33f 51c1 803e 8cb1 1a3e
000002d0: 9008 943f d318 d6be 1197 d43f 9927 2cbe
000002e0: b631 703e 870b df3f a5fb d2bd 9c04 10bf
000002f0: 7659 813f 26a5 ba3e c09d b0be eef7 59bf
00000300: 8cf6 b9bf e089 5dbf 8fc4 203f 4571 933f
00000310: c4e1 283f 5963 2b3e 2797 8cbc ed3c a43e
00000320: ed26 053e d586 c23e b6d3 243f 09b0 0cbf
00000330: abc2 10bf 1ebe 25bf 2fc3 e03e 8477 bcbd
00000340: d8f6 e93f c035 f23e b8b6 1f3f c7ad 2cbe
00000350: 19fe 803e 7c77 3dbe ec5f 43bd 6db5 7d3e
00000360: 28a3 34bf e0b2 5e3b b2d5 833e c441 c2bf
00000370: fbcb 93bf e1b6 89be f2c6 56bf 5cb0 5dbf
00000380: 6acf a53f c4cc a7be d1e9 b5bf b5fb 98bf
00000390: a25e 5d3e 3842 18bf 6ffd 233f 3246 403f
000003a0: b26a 92bf add1 c63f 1b91 8dbf ba9b 6fbf
000003b0: 343b 3e3f 596b 623e 2e0a 07be f682 643e
000003c0: a775 afbe febf 1b3f 15c2 8cbf c692 363f
000003d0: 8e74 2b3c ffb4 05be 8575 743e 9f40 0c3f
000003e0: 0444 553e 0222 d4be 11f0 a3bf 5e21 29be
000003f0: 672c 9fbe 02de c93c 86af a5be 5f68 233f

network.4.bias f4 [4]
-0.23884451 0.11996932 -0.10649093 -0.09121277
00000000: a893 74be 7ab2 f53d eb17 dabd c3cd babd

network.0.weight f4 [64, 24]
-0.7006534 -1.7114432 0.7381193 -1.0829884 -0.5192907 0.05763216 -0.28726214 0.026739694
0.07831676 0.2251611 -0.08850806 -0.17429554 -0.02189652 -0.06694989 -0.31609184 -0.21526267
-0.08690353 -0.14068975 -0.39701656 -0.097548716 -0.11935566 0.09740347 0.15814184 -0.10474498
-0.35986125 0.5279324 0.15816648 -1.3440521 -0.13571088 0.004826458 0.032853168 0.002909225
-0.007112496 -0.118531674 -0.03336933 0.025918126 0.023915112 -0.023627218 -0.17797531 -0.12553458
-0.12854666 -0.19158567 -0.47220275 -0.2174722 -0.22861539 -0.7356079 -0.010390153 0.6245569
-0.8794983 -3.1571472 0.42744857 0.7263362 -0.20131159 -0.090747 0.054352622 -0.034225084
-0.05697731 -0.4224928 -0.046938907 -0.1743309 -0.014576496 0.05516441 0.0730148 0.1339075
0.23345327 0.06770486 0.09033947 0.12376601 -0.054635067 -0.11331475 -0.16342181 -0.16201404
-0.39939982 -0.35717636 0.21101683 0.022165975 -0.55694616 -0.020996515 -0.21574217 0.05302182
0.046741106 -0.2094092 0.08649545 -0.1065233 0.060365558 -0.093121044 0.087734714 -0.011303843
0.19523466 -0.2011031 -0.006688285 0.056179136 -0.04561965 0.16477048 0.12863448 0.26251665
-0.7901517 -2.4227107 0.37537798 -0.4690993 -0.45119366 -0.048759446 -0.28240874 -0.014777627
-0.015877156 -0.033327263 -0.09746067 -0.040153187 -0.033704672 0.0051015452 -0.024200166 0.0009325332
0.15191144 -0.18261443 0.0677057 -0.12894964 -0.08732331 -0.22919579 0.13838884 -0.051349137
-1.0413342 -1.6046338 0.0069131814 0.3266825 -0.24678159 -0.046413105 -0.090748236 -0.029666282
-0.0041729696 -0.0465056 -0.08955467 -0.18334395 0.00020006165 -0.059866287 0.020874947 0.21561466
-0.09239713 0.18669872 0.19070204 0.19941157 0.24891293 -0.19351947 -0.3331714 -0.3720288
-0.6904324 -1.4810573 0.9183075 -0.1500667 0.031424068 -0.05097172 -0.0071241786 0.0049796524
0.008049489 -0.05742438 -0.030146508 -0.23014618 0.006014064 -0.021211607 0.07739272 0.04101191
-0.079246335 -0.20299932 -0.42560872 -0.3012086 -0.37167856 -0.31008455 -0.1963328 0.042433195
-0.5522203 -1.5781971 -1.0277425 1.565579 0.025598738 -0.0882962 0.003316496 -0.03932206
-0.013135197 -0.25614712 -0.050447416 -0.045787707 -0.029128421 -0.0051705204 0.30217335 0.56404006
0.50851625 0.18412508 0.32101104 -0.04948006 0.037293535 0.0030248712 -0.2789862 0.027802747
-0.65002966 -1.2146904 0.47189742 -0.35527012 -0.35349736 -0.008968842 0.018311385 0.028293502
0.038619462 -0.6041703 -0.059496544 -0.42148724 -0.0038283893 -0.03293174 0.13511178 0.095346145
0.051015653 0.122886024 -0.19491932 0.007597644 -0.15256 -0.13875796 -0.018577242 0.20973781
-1.23021 -1.5085914 0.16252017 -0.066944085 -0.49217784 -0.041351482 -0.17407383 -0.018008873
0.06612334 -0.6650257 0.0036372007 -0.18162064 0.002223777 0.008974003 -0.051307876 -0.015454267
0.035380844 -0.08630255 -0.008990799 -0.015927155 -0.18893881 -0.21860501 0.2977062 0.029179426
-0.8834424 -2.3167791 0.5199903 1.0751297 -0.17800356 -0.06090686 0.19452295 -0.068618484
-0.16391954 -0.45436415 -0.023413979 -0.263281 -0.011123852 -0.04338734 0.20747896 0.2758383
00000000: 055e 33bf 9210 dbbf 63f5 3c3f 5d9f 8abf
00000010: 3cf0 04bf b30f 6c3d 0614 93be 340d db3c
00000020: 8a64 a03d a290 663e b743 b5bd 887a 32be
00000030: 5560 b3bc 061d 89bd cad6 a1be d16d 5cbe
00000040: 7afa b1bd f910 10be c145 cbbe 9fc7 c7bd
00000050: be70 f4bd 787b c73d efef 213e 8984 d6bd
00000060: bc3f b8be 9426 073f 65f6 213e e609 acbf
00000070: cbf7 0abe 4427 9e3b 0b91 063d b2a8 3e3b
00000080: f10f e9bb bcc0 f2bd 47ae 08bd 4052 d43c
00000090: a0e9 c33c de8d c1bc 293f 36be 238c 00be
000000a0: bca1 03be 092f 44be 8fc4 f1be 08b1 5ebe
000000b0: 271a 6abe cd50 3cbf 763b 2abc f6e2 1f3f
000000c0: cd26 61bf b30e 4ac0 8ada da3e 2bf1 393f
000000d0: a024 4ebe 90d9 b9bd dba0 5e3d 9a2f 0cbd
000000e0: 0a61 69bd fa50 d8be 0343 40bd cd83 32be
000000f0: 41d2 6ebc 14f4 613d c988 953d 0c1f 093e
00000100: 600e 6f3e d8a8 8a3d e603 b93d 0979 fd3d
00000110: 05c9 5fbd 9011 e8bd 0c58 27be 02e7 25be
00000120: 227e ccbe d2df b6be cc14 583e 6b95 b53c
00000130: 0694 0ebf e200 acbc 84eb 5cbe 682d 593d
00000140: 9a73 3f3d 5e6f 56be 8724 b13d e328 dabd
00000150: e041 773d 3fb6 bebd 42ae b33d c133 39bc
00000160: 98eb 473e f9ed 4dbe 6729 dbbb 181c 663d
00000170: acdb 3abd 98b9 283e c2b8 033e 9568 863e
00000180: 6247 4abf b10d 1bc0 8b31 c03e c92d f0be
00000190: db02 e7be fcb7 47bd e197 90be dc1d 72bc
000001a0: cf10 82bc 2b82 08bd 7699 c7bd ab77 24bd
000001b0: e90d 0abd dd2a a73b 6d3f c6bc 3e75 743a
000001c0: ac8e 1b3e 47ff 3abe 49a9 8a3d 600b 04be
000001d0: 90d6 b2bd 4db2 6abe ceb5 0d3e 7953 52bd
000001e0: 704a 85bf a464 cdbf f887 e23b ee42 a73e
000001f0: 50b4 7cbe ab1b 3ebd 36da b9bd b406 f3bc
00000200: 68bd 88bb a87c 3ebd 7068 b7bd 84be 3bbe
00000210: a4c7 5139 5a36 75bd f001 ab3c 17ca 5c3e
00000220: b53a bdbd f32d 3f3e 6547 433e 8c32 4c3e
00000230: 08e3 7e3e f829 46be 7195 aabe 8f7a bebe
00000240: 2ec0 30bf 4993 bdbf 3316 6b3f 16ab 19be
00000250: 86b6 003d b9c7 50bd f171 e9bb 5a2c a33b
00000260: 01e2 033c d435 6bbd cff5 f6bc 71ab 6bbe
00000270: a011 c53b f7c3 adbc 1380 9e3d 1bfc 273d
00000280: e74b a2bd 0edf 4fbe 63e9 d9be 0338 9abe
00000290: a74c bebe 67c3 9ebe 770b 49be 6ece 2d3d
000002a0: 4f5e 0dbf 5d02 cabf 118d 83bf e564 c83f
000002b0: 72b4 d13c a3d4 b4bd 9259 593b 2b10 21bd
000002c0: 0235 57bc b725 83be f3a1 4ebd e48b 3bbd
000002d0: ba9e eebc 786d a9bb 77b6 9a3e ee64 103f
000002e0: 1f2e 023f 498b 3c3e 8f5b a43e 9aab 4abd
000002f0: 1bc1 183d eb3c 463b 47d7 8ebe 96c2 e33c
00000300: 5868 26bf fa7a 9bbf 8a9c f13e f7e5 b5be
00000310: 9bfd b4be 0df2 12bc c201 963c c6c7 e73c
00000320: 712f 1e3d e8aa 1abf a6b2 73bd 2dcd d7be
00000330: b7e5 7abb 6fe3 06bd be5a 0a3e d744 c33d
00000340: caf5 503d abab fb3d ee98 47be a8f5 f83b
00000350: b038 1cbe 9116 0ebe 4d2f 98bc 82c5 563e
00000360: 8577 9dbf 8619 c1bf b06b 263e fb19 89bd
00000370: bcfe fbbe 2c60 29bd 6940 32be 5887 93bc
00000380: ac6b 873d 203f 2abf 1a5e 6e3b c3fa 39be
00000390: c9bc 113b b207 133c 3528 52bd e533 7dbc
000003a0: 81eb 103d 64bf b0bd 254e 13bc aa79 82bc
000003b0: 2d79 41be fed9 5fbe f26c 983e b109 ef3c
000003c0: 4829 62bf 1c46 14c0 161e 053f da9d 893f
000003d0: 9146 36be 7979 79bd 0631 473e d987 8cbd
000003e0: 86da 27be 6ba2 e8be acce bfbc c4cc 86be
000003f0: d140 36bc ecb6 31bd 5d75 543e ad3a 8d3e

network.0.bias f4 [64]
-0.14042702 0.62217194 -0.1360864 0.58659315 0.30382794 -0.007583167 0.16422042 0.045248568
-0.14865546 0.20904438 -0.121103734 0.075686514 0.22289923 0.1263353 0.35357118 0.24302118
0.2386099 0.05507368 -0.089156665 0.13668182 0.044007868 0.20024562 -0.29690874 -0.04218131
-0.044007685 -0.15937833 0.10728206 0.03345536 -0.19630814 0.038106482 -0.29104954 -0.11634753
0.023844369 -0.01689363 0.30722016 -0.115437835 0.40243718 0.16962723 0.4823747 0.22037321
-0.25860316 0.17816186 -0.04371722 0.07038371 -0.11036604 -0.094758905 0.57179224 0.104414664
-0.24899831 0.26995686 0.13077249 -0.1238706 0.020377304 0.31288114 -0.0026362794 0.055442564
-0.15974718 0.035243902 0.23456201 0.1081481 0.78440696 -0.12425941 0.09243226 0.14829418
00000000: 1acc 0fbe a946 1f3f 3c5a 0bbe f82a 163f
00000010: 568f 9b3e 377c f8bb 6629 283e 9056 393d
00000020: 2339 18be bb0f 563e 3c05 f8bd 8801 9b3d
00000030: b23f 643e 0a5e 013e 4807 b53e 8bda 783e
00000040: 2756 743e f094 613d c597 b6bd 52f6 0b3e
00000050: 9841 343d 300d 4d3e 6c04 98be 4fc6 2cbd
00000060: 6741 34bd 1334 23be b2b6 db3d 7d08 093d
00000070: 0005 49be 8b15 1c3d 7204 95be 9d47 eebd
00000080: 4455 c33c 8364 8abc f64b 9d3e ac6a ecbd
00000090: 3f0c ce3e c3b2 2d3e d1f9 f63e 84a9 613e
000000a0: a267 84be 1070 363e d410 33bd 5625 903d
000000b0: 9707 e2bd f510 c2bd fa60 123f 5bd7 d53d
000000c0: 6af9 7ebe c937 8a3e 39e9 053e deaf fdbd
000000d0: 4eee a63c f531 a03e 6ec5 2cbb be17 633d
000000e0: c494 23be e95b 103d 0631 703e c07c dd3d
000000f0: e5ce 483f b87b febd 204d bd3d 6eda 173e

network.2.weight f4 [64, 64]
-0.13759874 -0.098703966 0.054424558 0.07969303 -0.11696703 -0.025789313 0.092167854 -0.020178247
0.0072164615 -0.055233713 -0.0890306 0.08295389 0.047389593 -0.047571313 -0.030334145 -0.15947941
0.10246789 -0.0355656 -0.11866017 -0.11273245 -0.09011441 0.07006724 -0.12613986 -0.014290382
0.03252436 -0.12664562 -0.02864185 -0.080007456 -0.10009426 -0.0042598895 0.08446647 0.0025703502
-0.09795699 -0.07202224 0.02139298 -0.069203556 0.024417894 -0.06753174 -0.09284195 -0.10409898
-0.11697868 0.011446158 -0.07615968 -0.1268605 -0.11581701 -0.019405005 0.031702697 0.08062183
0.018568875 -0.10117126 0.01933194 -0.057251517 0.07425141 0.06330854 0.020770408 0.051927663
-0.013684834 -0.1013115 0.038143676 -0.06596504 -0.027775407 0.09991629 0.06364591 0.06265789
0.09796644 -0.28925145 -0.89083683 0.06976744 0.61846685 0.6647124 -0.18360636 -1.1110854
1.3272775 -0.3031347 0.0051451838 0.2999351 0.11446836 -0.061302338 -0.652335 0.3185915
0.8297578 -0.17666064 0.55018055 -0.31372023 -0.045504387 -0.2117924 0.15059936 1.1165566
1.308639 -0.90642095 1.1970367 -0.1110912 0.71745485 -0.3795607 -0.3512491 1.0396831
0.18960242 0.5388079 -0.38188097 1.3147191 0.3455306 -0.20331204 -0.07368682 0.32627323
1.6490916 -0.013057075 0.40077588 0.2876609 0.03901837 -0.39768317 -0.056027815 -0.24314594
0.23103912 -0.05718538 0.2828739 0.16562648 0.32725865 0.1669187 -0.07030851 -0.03682499
0.9572842 0.32084996 0.034084056 0.29309574 0.017694877 0.3802707 0.22125436 0.19335262
0.32170328 0.1692143 -2.5111969 0.5172987 0.06763295 -0.28087345 -7.897139 -0.08653458
-2.7805667 -2.328356 -1.812003 -5.1292834 0.2173441 0.3302001 -4.0743413 -0.6999034
-4.89086 0.6588435 5.504047 -2.2009718 0.5134374 -7.795676 2.6923387 -3.178824
-4.1629524 -3.3998053 -0.23865113 0.4098709 0.20787193 -1.9528764 -2.7515378 -3.1220417
-6.5468817 -6.3469276 0.7776223 -4.8085103 -6.713536 0.14466353 0.5312124 -6.4377832
0.73898166 -3.9749253 -5.40182 0.400828 -3.9354274 -1.1290957 0.63582814 -0.068542786
0.019543512 -0.8525966 -3.7006407 -7.786749 -6.950748 0.1417513 -0.02567767 -1.226076
2.4644506 -1.3968185 0.4208784 0.2774325 0.3881474 -6.3384404 0.34387344 -3.9235964
0.11108311 0.7596004 -2.8767157 0.17309391 -0.1780187 -0.24306569 -6.4165993 0.53436965
-4.1673627 -1.5948732 -0.20466189 -3.8611903 0.37929097 0.26220515 -3.9837916 -0.9072267
-4.5838575 0.0106819 0.72286433 -1.9292417 0.25882715 -5.7840414 -1.7903666 -4.2400613
-3.0167725 -3.0947187 -0.3997121 -0.15760906 -1.9344641 -2.824113 -2.619647 -3.628338
-5.1289616 -5.4767346 0.8102481 -4.0215936 -6.211256 0.32372472 0.12170622 -5.384017
-0.81728005 -1.5103687 -4.680878 -0.084341675 -2.8346157 -0.74145716 0.39864177 0.065819964
0.7089262 -0.9581442 -3.7703867 -4.01578 -4.6675577 0.09755837 0.258111 -1.5698531
0.5260993 -0.541687 0.07246445 -0.06463604 0.018986328 -3.4486167 -0.0059811696 -3.759868
00000000: afe6 0cbe 4e25 cabd 49ec 5e3d 1936 a33d
00000010: 698c efbd 1c44 d3bc 80c2 bc3d da4c a5bc
00000020: 1178 ec3b bf3c 62bd ad55 b6bd bbe3 a93d
00000030: 971b 423d 23da 42bd 507f f8bc 924e 23be
00000040: afda d13d 3cad 11bd 1a04 f3bd 45e0 e6bd
00000050: e78d b8bd 6a7f 8f3d cf2a 01be 3522 6abc
00000060: 4338 053d 64af 01be 50a2 eabc f3da a3bd
00000070: 38fe ccbd 8b96 8bbb c2fc ac3d 5273 283b
00000080: ad9d c8bd 6580 93bd 5540 af3c 98ba 8dbd
00000090: 0908 c83c 154e 8abd ec23 bebd d931 d5bd
000000a0: 8592 efbd ab88 3b3c 9bf9 9bbd b8e7 01be
000000b0: 7831 edbd 3ff7 9ebc b0da 013d 0f1d a53d
000000c0: c11d 983c e132 cfbd 045e 9e3c 9180 6abd
000000d0: 2011 983d e8a7 813d b426 aa3c 1ab2 543d
000000e0: 5b36 60bc 677c cfbd 8b3c 1c3d ae18 87bd
000000f0: 4089 e3bc e9a0 cc3d c958 823d c852 803d
00000100: a1a2 c83d c418 94be e20d 64bf 3be2 8e3d
00000110: d853 1e3f 982a 2a3f 4e03 3cbe 0c38 8ebf
00000120: 3be4 a93f 7934 9bbe ee98 a83b 1891 993e
00000130: 636e ea3d 2918 7bbd 6dff 26bf 6d1e a33e
00000140: 026b 543f 87e6 34be a2d8 0c3f f09f a0be
00000150: cf62 3abd 1be0 58be b836 1a3e 54eb 8e3f
00000160: 7c81 a73f 340b 68bf 8038 993f c883 e3bd
00000170: 1fab 373f c855 c2be ecd6 b3be 5614 853f
00000180: 2327 423e 51ef 093f e785 c3be b748 a83f
00000190: 63e9 b03e 0831 50be 1ee9 96bd 490d a73e
000001a0: 6f15 d33f 58ed 55bc 7f32 cd3e 4a48 933e
000001b0: bad1 1f3d 219d cbbe 6c7d 65bd 40fb 78be
000001c0: 8595 6c3e 383b 6abd d9d4 903e fd99 293e
000001d0: 728e a73e bcec 2a3e e8fd 8fbd cdd5 16bd
000001e0: 9410 753f 7246 a43e b99b 0b3d a510 963e
000001f0: d9f4 903c d7b2 c23e 8190 623e 3bfe 453e
00000200: 4bb6 a43e 8346 2d3e 73b7 20c0 b06d 043f
00000210: 2583 8a3d a5ce 8fbe 5db5 fcc0 0b39 b1bd
00000220: cef4 31c0 c903 15c0 b7ef e7bf 1723 a4c0
00000230: 748f 5e3e fd0f a93e 0161 82c0 df2c 33bf
00000240: ed81 9cc0 f8a9 283f 2721 b040 b9dc 0cc0
00000250: a270 033f 2e76 f9c0 474f 2c40 da71 4bc0
00000260: e836 85c0 6996 59c0 f660 74be 99da d13e
00000270: 61dc 543e dbf7 f9bf 3219 30c0 88cf 47c0
00000280: 0e80 d1c0 081a cbc0 4112 473f 51df 99c0
00000290: 49d5 d6c0 ad22 143e 89fd 073f 5202 cec0
000002a0: e72d 3d3f 2d65 7ec0 b6db acc0 5439 cd3e
000002b0: 0bde 7bc0 3586 90bf a2c5 223f 2960 8cbd
000002c0: b719 a03c c543 5abf 4cd7 6cc0 0c2d f9c0
000002d0: 876c dec0 4127 113e fa59 d2bc 0ff0 9cbf
000002e0: 8fb9 1d40 f3ca b2bf 607d d73e a20b 8e3e
000002f0: 42bb c63e 81d4 cac0 2e10 b03e 341c 7bc0
00000300: 8b7f e33d 2c75 423f 1c1c 38c0 883f 313e
00000310: 894a 36be 36e6 78be c854 cdc0 73cc 083f
00000320: 095b 85c0 ce24 ccbf e392 51be be1d 77c0
00000330: 6d32 c23e c13f 863e 71f6 7ec0 0240 68bf
00000340: f6ae 92c0 2303 2f3c a30d 393f 64f1 f6bf
00000350: fe84 843e de16 b9c0 bc2a e5bf 95ae 87c0
00000360: cd12 41c0 df0f 46c0 10a7 ccbe 4564 21be
00000370: 859c f7bf 44be 34c0 4ca8 27c0 b136 68c0
00000380: 7420 a4c0 6941 afc0 6b6c 4f3f e5b0 80c0
00000390: 9cc2 c6c0 3fbf a53e 1c41 f93d de49 acc0
000003a0: 4439 51bf c353 c1bf c1c9 95c0 54bb acbd
000003b0: 586a 35c0 23d0 3dbf c61a cc3e 9ecc 863d
000003c0: 307c 353f f048 75bf 044e 71c0 4581 80c0
000003d0: a25c 95c0 afcc c73d 2027 843e f2f0 c8bf
000003e0: 72ae 063f 00ac 0abf 3e68 943d e65f 84bd
000003f0: 3789 9b3c 23b6 5cc0 b0fd c3bb ada1 70c0

network.2.bias f4 [64]
-0.07805544 0.16864663 0.4269936 0.2870028 0.071941964 0.25418302 0.2940293 0.022510715
-0.07903004 0.08969482 0.18170692 -0.021959256 -0.22319861 0.19843286 0.015682524 0.095502906
0.07086657 0.44839385 0.0091165695 0.38216975 -0.11359401 0.15408224 0.047027033 -0.035415832
-0.08514539 -0.01169443 -0.067970715 -0.057095986 0.24748482 0.19386125 0.15931047 0.0036068826
0.18565455 -0.017767739 0.077447556 -0.09324831 0.57696974 0.06510155 -0.05310365 -0.006357213
0.0048452597 0.39610463 0.32244 -0.02676454 0.041942753 0.098162405 -0.039062656 0.028505888
-0.08656834 -0.05359148 0.065120004 0.28785685 0.07366852 -0.0045769676 0.20504972 0.1983775
0.3469864 -0.0059759854 -0.08844712 0.04954374 0.31932724 -0.095336236 0.096049465 0.29492277
00000000: 88db 9fbd b4b1 2c3e e89e da3e 08f2 923e
00000010: 4f56 933d 4724 823e 028b 963e 6468 b83c
00000020: 80da a1bd ebb1 b73d 6111 3a3e e6e3 b3bc
00000030: 2d8e 64be fc31 4b3e a378 803c 0797 c33d
00000040: 7e22 913d e193 e53e aa5d 153c c1ab c33e
00000050: faa3 e8bd bcc7 1d3e 6b9f 403d 3110 11bd
00000060: b560 aebd ff99 3fbc 3b34 8bbd 7bdd 69bd
00000070: a96c 7d3e 9083 463e 4922 233e 7361 6c3b
00000080: 3a1c 3e3e a68d 91bc d39c 9e3d f8f8 bebd
00000090: 4ab4 133f f653 853d 3783 59bd 2b50 d0bb
000000a0: fcc4 9e3b 3ace ca3e db16 a53e 4f41 dbbc
000000b0: 2acc 2b3d 5f09 c93d 2a00 20bd 2e85 e93c
000000c0: be4a b1bd bd82 5bbd a35d 853d f961 933e
000000d0: 85df 963d 63fa 95bb 8ef8 513e 7923 4b3e
000000e0: 34a8 b13e 33d2 c3bb c323 b5bd 60ee 4a3d
000000f0: dc7e a33e a53f c3bd 95b5 c43d 1e00 973e

network.4.weight f4 [1, 64]
0.0068970947 0.7809304 1.1795367 1.8599565 -0.79734457 0.41271704 1.4256579 0.06833164
-0.73956066 -0.7296373 1.8211246 -0.6823898 2.9313881 2.0380094 -0.7756674 -0.8079466
-0.719255 0.8021322 -0.7323591 2.6502206 -0.7405912 1.696783 0.10602672 0.111978516
-0.7668298 -0.7826887 -0.65366966 -0.74108124 1.3117753 1.9378842 2.1160276 -0.70172864
2.6001217 -0.7633789 -0.6804258 -0.7171244 0.882108 -0.7297039 2.086137 -0.67667234
-0.79685086 1.3632517 1.8655989 -0.7605957 -0.7069424 3.295692 -0.7791701 -0.69325864
-0.80378187 -0.7936848 -0.73491406 1.7118441 1.818591 -0.7543098 1.9902945 1.4363358
1.6113372 -0.74788123 -0.65432334 -0.76308745 1.4095596 2.9152627 -0.722035 2.703167
00000000: 0601 e23b 0eeb 473f 0ffb 963f 0e13 ee3f
00000010: c61e 4cbf a64f d33e f57b b63f 75f1 8b3d
00000020: d953 3dbf 83c9 3abf 9c1a e93f 19b1 2ebf
00000030: dd9b 3b40 bf6e 0240 2492 46bf 97d5 4ebf
00000040: 1821 38bf 8958 4d3f e37b 3bbf 379d 2940
00000050: 6397 3dbf 2f30 d93f 8924 d93d fe54 e53d
00000060: f54e 44bf 495e 48bf e556 27bf 80b7 3dbf
00000070: 41e8 a73f 970c f83f ff6c 0740 7da4 33bf
00000080: 6568 2640 cd6c 43bf 6330 2ebf 7795 37bf
00000090: d4d1 613f e0cd 3abf 4583 0540 663a 2dbf
000000a0: 6bfe 4bbf 087f ae3f f2cb ee3f 66b6 42bf
000000b0: 2dfa 34bf 9eec 5240 b177 47bf 6679 31bf
000000c0: a6c4 4dbf ed2e 4bbf 5423 3cbf b51d db3f
000000d0: 97c7 e83f 721a 41bf f8c1 fe3f dad9 b73f
000000e0: 4c40 ce3f 2575 3fbf bc81 27bf b359 43bf
000000f0: 736c b43f aa93 3a40 49d7 38bf b000 2d40
